…
    "    test_data[i+test_len,:,:,:] = ram_im[:,:,[2, 1, 0]]"
   ]
  },
  {
   "cell_type": "markdown",
   "metadata": {},
   "source": [
    "## create model (fine-tuning VGG16)"
   ]
  },
  {
   "cell_type": "code",
   "execution_count": 2,
   "metadata": {},
   "outputs": [
    {
     "name": "stdout",
     "output_type": "stream",
     "text": [
      "Model: \"model_1\"\n",
      "_________________________________________________________________\n",
      "Layer (type)                 Output Shape              Param #   \n",
      "=================================================================\n",
      "input_1 (InputLayer)         (None, 200, 200, 3)       0         \n",
      "_________________________________________________________________\n",
      "block1_conv1 (Conv2D)        (None, 200, 200, 64)      1792      \n",
      "_________________________________________________________________\n",
      "block1_conv2 (Conv2D)        (None, 200, 200, 64)      36928     \n",
      "_________________________________________________________________\n",
      "block1_pool (MaxPooling2D)   (None, 100, 100, 64)      0         \n",
      "_________________________________________________________________\n",
      "block2_conv1 (Conv2D)        (None, 100, 100, 128)     73856     \n",
      "_________________________________________________________________\n",
      "block2_conv2 (Conv2D)        (None, 100, 100, 128)     147584    \n",
      "_________________________________________________________________\n",
      "block2_pool (MaxPooling2D)   (None, 50, 50, 128)       0         \n",
      "_________________________________________________________________\n",
      "block3_conv1 (Conv2D)        (None, 50, 50, 256)       295168    \n",
      "_________________________________________________________________\n",
      "block3_conv2 (Conv2D)        (None, 50, 50, 256)       590080    \n",
      "_________________________________________________________________\n",
      "block3_conv3 (Conv2D)        (None, 50, 50, 256)       590080    \n",
      "_________________________________________________________________\n",
      "block3_pool (MaxPooling2D)   (None, 25, 25, 256)       0         \n",
      "_________________________________________________________________\n",
      "block4_conv1 (Conv2D)        (None, 25, 25, 512)       1180160   \n",
      "_________________________________________________________________\n",
      "block4_conv2 (Conv2D)        (None, 25, 25, 512)       2359808   \n",
      "_________________________________________________________________\n",
      "block4_conv3 (Conv2D)        (None, 25, 25, 512)       2359808   \n",
      "_________________________________________________________________\n",
      "block4_pool (MaxPooling2D)   (None, 12, 12, 512)       0         \n",
      "_________________________________________________________________\n",
      "block5_conv1 (Conv2D)        (None, 12, 12, 512)       2359808   \n",
      "_________________________________________________________________\n",
      "block5_conv2 (Conv2D)        (None, 12, 12, 512)       2359808   \n",
      "_________________________________________________________________\n",
      "block5_conv3 (Conv2D)        (None, 12, 12, 512)       2359808   \n",
      "_________________________________________________________________\n",
      "block5_pool (MaxPooling2D)   (None, 6, 6, 512)         0         \n",
      "_________________________________________________________________\n",
      "sequential_1 (Sequential)    (None, 2)                 4752002   \n",
      "=================================================================\n",
      "Total params: 19,466,690\n",
      "Trainable params: 7,111,810\n",
      "Non-trainable params: 12,354,880\n",
      "_________________________________________________________________\n"
     ]
    }
   ],
   "source": [
    "from keras.applications.vgg16 import VGG16                   # 学習済モデルとしてvgg16を指定(詳しくは: https://keras.io/ja/applications/)\n",
…
